log/GNN/best_model.pt (torch, 381922 bytes, 36 tensors)

conv1.convs.<student___enrolled___course>.lin_l.weight f4 [128, 57]
000000 3e 52 cb ba c3 52 bc bb e4 34 7f bd e2 cd 47 3d
       -0.0015512181 -0.0057471707 -0.0623063 0.04878033
000010 59 36 b9 3c ca 14 06 3d 50 0c 66 bd 1a fb 33 3d
       0.022608923 0.03273467 -0.056164086 0.04394064
000020 e0 14 49 3d 8a 69 83 bd f6 60 48 bd 67 48 5f bd
       0.049092174 -0.06416614 -0.048920594 -0.054512408
000030 fe f0 05 3c 20 ce a3 3d 95 a9 28 bd 86 d7 29 3d
       0.008175133 0.079982996 -0.04117735 0.041465305
000040 b2 a5 20 bd c0 eb 8e ba 37 61 1f bd 2a b3 5c 3a
       -0.03922052 -0.0010903999 -0.03891107 0.00084190315
000050 7c df fa 39 46 2a 83 3d 2b 81 07 be ad 33 e9 bd
       0.00047850225 0.064045474 -0.13232867 -0.113868095
000060 91 10 ce 3d b9 56 62 bd 1b 7c 93 b7 57 6f a6 3d
       0.100617535 -0.055258486 -1.7581557e-05 0.08126705
000070 83 b8 77 37 7a c0 29 3d 45 d6 cf 3d b0 04 b2 3d
       1.4765307e-05 0.041443326 0.101482905 0.086923
000080 e2 49 79 3d 92 25 6c bd 6a 0e e8 bd 35 4c 21 3d
       0.060861476 -0.057653017 -0.11330874 0.039379317
000090 c5 a7 c4 3d 8c 29 d1 bd f3 6e fa 3c f8 09 69 3d
       0.09602312 -0.102130026 0.030570483 0.056894273
0000a0 9a 7c f0 bd f5 93 15 be b1 da 07 be 3f 48 5f 3c
       -0.11742516 -0.14607222 -0.13267018 0.013628065
0000b0 ac 24 ba bd 8a 50 c8 bd a6 09 33 39 c8 03 c2 bd
       -0.09089026 -0.097809866 0.00017074365 -0.094733775
0000c0 d1 a1 11 3a e2 ba be bd d2 90 c2 3d 7d a0 a1 3a
       0.00055554236 -0.09312989 0.095002785 0.0012331154
0000d0 4f fb 22 38 dc 01 24 3d 2e 3e a3 bd ed 35 af bb
       3.885786e-05 0.040040836 -0.07970844 -0.0053470046
0000e0 23 00 53 3d e0 21 86 bd 79 02 82 3b 95 c8 bb 3c
       0.051513802 -0.0654943 0.00396758 0.022922793
0000f0 98 aa f3 3c 10 10 71 3d bb d6 96 3d e9 04 60 3d
       0.029744431 0.05885321 0.07365175 0.054692183
000100 cd 7a 85 3c 62 3a bd 3d 7d a5 73 bd ae 4b db bd
       0.016293908 0.09239651 -0.059483994 -0.10707794
000110 cd 87 20 3d 30 9e ab 3c 39 f3 f9 3b 34 ec be bd
       0.03919201 0.020949453 0.0076278714 -0.09322396
000120 fe 84 50 3d aa 0f e4 3a 14 6c 07 3e 84 15 e0 3d
       0.05090808 0.0017399688 0.13224822 0.10941604
000130 aa 30 5f bd 7e e8 8d bd 3b ec 4a 3d 60 7b 41 bc
       -0.05448977 -0.0692911 0.049541693 -0.0118092
000140 7c 12 29 3d fc 62 9e bd 20 ff 70 3d 59 e9 97 b9
       0.041277394 -0.077337235 0.058837056 -0.00028974822
000150 ab 81 af bd 53 03 f4 ba 2a 24 08 bc 49 ad 8b bb
       -0.08569654 -0.0018616713 -0.008309403 -0.0042626006
000160 99 d1 2f 3d dc eb 87 3d 1d 69 c1 bd 19 6c e5 3d
       0.042924497 0.066367835 -0.09443877 0.112022586
000170 68 5a a5 3d 13 78 38 3c 27 d0 8e bb 47 70 0c bb
       0.08073884 0.011259097 -0.00435831 -0.0021429227
000180 cb 68 d1 bd 51 c9 61 bd 64 ae 81 3d e6 18 34 bc
       -0.10225066 -0.05512363 0.063320905 -0.010992264
000190 34 2f a9 bd 50 73 a5 3d c9 0d 16 bd 08 c7 91 ba
       -0.082609564 0.08078635 -0.03663424 -0.0011121938
0001a0 41 a3 b4 bb 82 c5 00 bb 5b 7c 53 bd be cb de bd
       -0.0055126254 -0.0019648974 -0.051632266 -0.108787045
0001b0 e2 af e8 b9 28 5a bc 39 b0 d9 78 bc b9 bd 22 3d
       -0.0004438153 0.00035925326 -0.0151886195 0.039731715
0001c0 06 59 72 bd f0 db a3 bd 65 55 c2 3c 42 c0 5d ba
       -0.05916693 -0.08000934 0.02372236 -0.00084591296
0001d0 ab 07 1f ba 95 9c 0e 3b ee 5f 63 bb f2 50 73 3a
       -0.0006066511 0.002176081 -0.003469463 0.0009281776
0001e0 ee 9c 71 bc fb e0 f0 ba 8b 94 e0 ba cf 3c 82 3b
       -0.014746888 -0.0018377596 -0.0017134113 0.003974534
0001f0 b3 fa ff bc ea 36 82 3c 8c ac 0d 3c f2 91 8e 3c
       -0.031247472 0.015895326 0.008647095 0.017403577
000200 8a 0d 8c bd bd 55 87 b9 a4 ff a5 bb ff 82 5f bb
       -0.0683852 -0.00025813087 -0.005065875 -0.003410518
000210 44 f0 ce 3c 8c e4 df bb d3 34 ec bc 10 22 d7 bc
       0.025261052 -0.006832665 -0.028833782 -0.02626136
000220 90 2a 03 bb a2 d6 55 bd c3 01 32 bc 3c 38 04 3d
       -0.0020014383 -0.052206643 -0.010864678 0.03228019
000230 bc 96 ca b9 c7 5a 40 b9 85 f7 8b ba ae be 85 bc
       -0.00038640748 -0.00018344364 -0.0010678625 -0.016326275
000240 cf e7 ba bc 51 a8 62 3b 8d 72 47 3c de 0b 9e bc
       -0.022815613 0.0034585188 0.012173307 -0.019292768
000250 bf 44 25 bb e3 0e 39 3b 6e 58 83 bb dc 4e 72 bb
       -0.0025217978 0.0028237633 -0.0040083444 -0.0036973273
000260 0b c9 44 3d be 9b fb bb f0 d9 c5 bc a1 f0 2a bc
       0.048043292 -0.007678478 -0.024151772 -0.010433347
000270 1e eb 9e 3c d4 7c 34 3d 3d 88 4a bc c5 b2 61 3d
       0.019399222 0.044064358 -0.012361583 0.05510213
000280 f6 07 f7 39 15 cd a8 ba d7 90 12 ba 3f f7 26 bd
       0.00047117443 -0.0012878502 -0.0005591041 -0.040763136
000290 a8 2b 26 3c 58 27 f5 ba 88 d2 fd 3a 49 00 82 3a
       0.010142244 -0.0018703742 0.0019365111 0.0009918298
0002a0 4d c3 4b 3c a2 65 71 bc 1a d3 ab bc 73 0a b0 bd
       0.0124367 -0.014733704 -0.020974685 -0.08595743
0002b0 73 0d 89 ba 08 7e f2 bc 63 1e 8c 3c cb c7 18 3b
       -0.0010456279 -0.029601112 0.017104333 0.0023312445
0002c0 69 5f eb bc 80 57 7a 3d 9e 6b bd b9 46 63 bc 3b
       -0.028732019 0.061118603 -0.0003612907 0.005749139
0002d0 bd 64 23 3c 3e b8 f6 3c 85 23 b4 bd 68 dc a7 bd
       0.009972748 0.03011715 -0.08795837 -0.08196336
0002e0 8e eb be bc 0b 2b 91 bb 51 51 64 3d 82 d8 71 3d
       -0.02330568 -0.00443018 0.055741612 0.05904437
0002f0 c7 32 65 3d a1 ba 9a 3d 3a 90 6d 3c dc f2 23 bc
       0.05595663 0.07555128 0.014499718 -0.010006633
000300 0a 31 39 3d d7 31 89 bd 7a 01 c0 bc db b8 26 bc
       0.045212783 -0.06698959 -0.023438204 -0.010175909
000310 83 74 38 bd 4a 37 0d ba d7 81 95 bc af 28 7d 36
       -0.04503299 -0.0005386962 -0.018250389 3.7723619e-06
000320 56 3e e9 bc 19 4c 99 ba 6f 70 2a 3d 1e 56 2b 3d
       -0.028472107 -0.0011695653 0.04161113 0.041830175
000330 03 a7 42 3d 0c 7d 22 3d 34 26 84 3d 67 77 48 bd
       0.047522556 0.039670035 0.06452599 -0.048941996
000340 f4 bf cb 3c a6 60 8b b9 9c 7d 8b bc 7d aa e5 ba
       0.024871804 -0.00026584155 -0.017027669 -0.0017522123
000350 05 6e 87 3d b8 e1 5f bd 96 c1 d2 3d 1f c6 b6 3d
       0.066127814 -0.05465862 0.1029083 0.08924507
000360 7f 02 44 bd 28 17 b1 b9 bc 30 f5 bb 75 8c 16 ba
       -0.047853943 -0.00033777324 -0.007482616 -0.00057429756
000370 97 07 91 3d 3c 44 01 bd 50 d8 20 3a cd 4c 3a ba
       0.07081526 -0.031559214 0.00061357487 -0.0007106781
000380 28 f3 8a 3c 10 f6 43 bd 80 e4 aa 3c 3c 68 93 3d
       0.016961649 -0.047842085 0.02086091 0.071976155
000390 80 3e 71 bd 76 9d 9c 38 e4 bb 4f bc 8d 8b 1a 3c
       -0.058897495 7.467989e-05 -0.012679074 0.009432686
0003a0 16 54 84 3c 78 14 9b 3a bb d4 17 3c 5b 6f 33 3b
       0.016153377 0.0011831662 0.0092670275 0.0027379605
0003b0 35 ab a3 bb b6 e9 af 3b 4b a2 04 3d 55 d6 8a 3d
       -0.0049947747 0.0053684367 0.032381337 0.06779162
0003c0 74 82 9b 3d 47 48 20 bd e2 18 2f bd ad dc ce bc
       0.07593241 -0.03913143 -0.04274834 -0.02525171
0003d0 65 e8 6b 3d d5 06 e6 3c a4 24 cf 3c 4c 5d 6e 3d
       0.057594676 0.02807943 0.025286026 0.058194444
0003e0 99 ea 04 bd 73 eb 1c 3d 63 05 b4 3d 99 05 9e 3d
       -0.032450292 0.03831048 0.0879009 0.077159114
0003f0 03 7c 09 bd f1 bc 9d 3b 4c 91 aa b9 09 e4 2c 3c
       -0.033565532 0.0048137833 -0.0003253318 0.010552415

conv1.convs.<student___enrolled___course>.lin_l.bias f4 [128]
000000 a0 73 bc 3d f7 ed 9c bd b6 df 19 bd 66 49 9d bd
       0.09201741 -0.07662576 -0.037566863 -0.07680015
000010 1a 16 45 3d 4b f4 c8 3d 9a 56 1c 3d 2e 88 57 bc
       0.04811678 0.0981222 0.038168527 -0.013155026
000020 d6 3b 00 be 41 61 e5 3b 78 6b f5 bd 52 dc dc 3d
       -0.12522826 0.007000119 -0.11983389 0.1078421
000030 d6 81 eb 3d e4 96 d9 bc db 70 9e bd 90 b6 00 be
       0.114993736 -0.026561208 -0.07736369 -0.12569642
000040 3f be 9a bd aa fd d5 3d 4d 6a a1 3c 26 b5 07 be
       -0.07555818 0.10448773 0.019704008 -0.13252696
000050 40 f6 77 3d 6a a1 20 bc a4 6c 59 3c dc 3c 0b 3d
       0.060537577 -0.009804109 0.013270531 0.033993587
000060 b8 20 07 3d dc e5 a5 bd 5f d5 a9 3d 8a 35 7c 3d
       0.032990187 -0.08100483 0.082926504 0.061574496
000070 04 8e d6 3d 5f bd d3 3d 99 62 c8 3d 6f 20 b6 3c
       0.10476306 0.10338854 0.09784431 0.022232262
000080 0f 07 ac 3c 44 27 95 3d a0 15 a7 3d 5f d8 8b bd
       0.02099946 0.0728288 0.081584215 -0.06828379
000090 12 88 d6 bd d2 20 58 bd f9 6c 94 3d 8a 3a 10 3c
       -0.10475172 -0.052765675 0.072473474 0.008803019
0000a0 d1 dd cb bd 0d 10 63 bd c4 2d 0f bd 45 22 1a be
       -0.099544175 -0.05543523 -0.034955755 -0.15052135
0000b0 4d fb 41 3d 1f 17 09 be 92 e3 93 bd 5c a7 d2 bd
       0.0473588 -0.13387726 -0.0722114 -0.102858275
0000c0 c2 5a 04 be 3a 76 97 bd 34 b7 2e 3d c1 0e 13 3d
       -0.12925246 -0.07395597 0.042655185 0.035902742
0000d0 d1 e3 2e 3d 44 ee 17 bd 2a 0a d2 3d b1 7b 27 3d
       0.04269773 -0.037092462 0.10255845 0.040889446
0000e0 ef 9c ee 3d c5 05 07 3d 13 e9 9f 3d 66 a8 85 3d
       0.116510265 0.032964487 0.07808127 0.0652626
0000f0 f1 97 1b 3d 52 3f cd bc 1b 59 45 3d dc 86 b7 bd
       0.0379867 -0.025054608 0.04818068 -0.08961269
000100 4e 2e 63 bd c7 3e 03 be 80 ef 4f ba d5 8f a7 3d
       -0.05546408 -0.12816916 -0.00079321116 0.08181731
000110 b2 65 e3 bd 68 88 c2 bd ad ed 73 bd f1 f4 ac bc
       -0.11103381 -0.09498674 -0.059552837 -0.02111289
000120 d6 72 85 bd 42 53 90 bc 27 db 24 3c 0e 3b 60 bb
       -0.06516044 -0.017617825 0.010062016 -0.0034214887
000130 7a 46 37 3c 78 b6 db bb bc 94 2d bc f4 5e 1c 3d
       0.0111862365 -0.0067051016 -0.010594543 0.03817649
000140 c9 70 3e 3d b6 fb 9e ba 2c 21 e1 3d 0c 69 ce 3d
       0.04649428 -0.0012129459 0.10992655 0.1007863
000150 69 70 be bd bc 1e 81 3b 12 3e a1 bd ff 59 c7 bd
       -0.09298784 0.0039404314 -0.07873167 -0.09733962
000160 01 e4 fe bd e4 5a b6 3d 50 cb e0 bd dd e8 11 3b
       -0.12445832 0.08904055 -0.10976279 0.0022264041
000170 fc 46 82 bd 1c 5f 1a 3d 9d a9 f0 bc 55 48 3e 3d
       -0.063611954 0.03768836 -0.029377753 0.0464557
000180 60 96 75 3c 0f 80 3d ba c2 53 08 bd 6c 77 ca bd
       0.0149894655 -0.000722886 -0.033283003 -0.09886059
000190 90 eb eb bd af 54 c5 bd 77 9d be bd d5 24 c2 3d
       -0.11519539 -0.09635293 -0.09307378 0.094796814
0001a0 fc 8d d3 b9 b3 49 97 bd 67 7d 8a 3c d7 2b 5a 3d
       -0.00040350843 -0.07387104 0.0169055 0.053264465
0001b0 fa 9c c9 3d fd 72 9f bd 91 cf d0 3d f8 e3 56 3c
       0.09844394 -0.07785604 0.1019584 0.013115875
0001c0 b7 2f 3b bd 1c cc 65 bd 06 f8 68 3c ca d9 9e 3d
       -0.0456998 -0.056102857 0.01421929 0.07756384
0001d0 53 03 d7 bb a6 b5 8b 3d cf b8 c5 bd 21 a0 32 3c
       -0.0065616756 0.06821756 -0.0965439 0.0109024355
0001e0 4a 8e 8b 3c a0 97 5f 3d ca b2 d9 bd 03 74 d8 bc
       0.017035622 0.05458796 -0.106298044 -0.026422506
0001f0 d5 5c 8a 3d 57 c3 50 bd e5 dd 36 3d 7d 01 d5 3d
       0.067559876 -0.05096754 0.04464521 0.104006745

conv1.convs.<student___enrolled___course>.lin_r.weight f4 [128, 57]
000000 0e c8 cc bd 33 f2 55 bb f4 17 94 3d 11 e6 e6 3c
       -0.09999095 -0.0032645583 0.07231131 0.028185876
000010 42 25 7d bd 0f 0b 45 bd 36 ea fd bc 1b 01 66 bd
       -0.06180311 -0.04810625 -0.03099547 -0.056153398
000020 f2 9a 9e 3d 65 0b 50 bc 85 ee 67 bb ce 41 7d bd
       0.07744397 -0.012698029 -0.0035389971 -0.061830334
000030 f2 43 55 bd 3c 1f 95 bb 46 3a bf 3d e8 75 ec bc
       -0.05206675 -0.0045508426 0.09337287 -0.028864816
000040 9f 9f dd bd ed 4f 05 bd 32 2b 92 3d fb ee b3 bd
       -0.10821461 -0.032546926 0.07137145 -0.08785816
000050 63 1c fa 3d 55 19 b8 3d 00 70 60 3b d9 3f 07 bd
       0.122124456 0.08989207 0.0034246445 -0.033019874
000060 b0 00 d7 3b fa 3a 96 bd ad e4 27 ba 90 f8 44 bc
       0.0065613613 -0.07335468 -0.000640462 -0.012022153
000070 ba ec 62 3a 6b e4 30 3c c5 53 83 3d 8d 3d 22 bd
       0.0008656491 0.010796647 0.06412462 -0.03960948
000080 bf e0 9c 3d 78 c2 d1 3d a3 29 bd 3d a3 23 d3 bd
       0.076600544 0.1024217 0.09236457 -0.103095315
000090 06 38 da 3c 45 3f 23 bd dc d2 c4 bc 4e a6 96 3d
       0.026638042 -0.03985526 -0.024026327 0.07355939
0000a0 ad cc a6 bc 3e 73 99 3c d9 6f b7 3d 26 8a da bd
       -0.020361269 0.01873171 0.0895688 -0.10670881
0000b0 e9 1d bb bd ec 2e 08 3c bd 45 6d 3a 7a 29 3e 3c
       -0.09136564 0.008311968 0.00090512243 0.0116065685
0000c0 42 8c e9 39 72 41 90 bd 87 b9 9e bd 4a ef b1 38
       0.00044545723 -0.07043733 -0.0775023 8.484589e-05
0000d0 de 82 00 bb 3a f4 a1 3d 3f 36 5d bd c2 45 17 bc
       -0.0019609253 0.07907911 -0.05400681 -0.00923294
0000e0 14 81 bc 3d c7 63 15 3d cc 98 b2 bb 14 f7 b4 bd
       0.09204307 0.03647211 -0.0054503437 -0.08836189
0000f0 ac f8 28 bd e7 96 76 bd 70 a2 ca 3d 20 e3 cc 3d
       -0.041252777 -0.060202505 0.09894264 0.10004258
000100 51 d8 f0 3c 46 2c 5e 3b c8 70 44 3d 9e 78 79 bd
       0.029400023 0.00339009 0.04795912 -0.060906045
000110 40 7d 85 bd 10 6c f0 3d 15 7b b6 bd 97 10 0d 3d
       -0.0651803 0.11739361 -0.08910195 0.03443965
000120 30 d7 13 bd d0 f4 7d bd 0d c1 68 bd f7 5c 87 bd
       -0.03609389 -0.06200105 -0.056824733 -0.066095285
000130 a6 80 b5 bc 6e 39 5c 3d bf 77 f5 3d 41 91 cf 3d
       -0.02215607 0.053765707 0.119857304 0.10135127
000140 55 f1 08 3d a3 06 8a bd db 36 e0 3c 56 e0 5c 39
       0.033433277 -0.06739547 0.027369907 0.00021064407
000150 57 01 4e 3d 31 3d 7c ba fe fc af 3b 5c af ae bd
       0.050294247 -0.00096221553 0.005370735 -0.08529541
000160 10 5c 8a 3c ea a3 4f 3d d5 c8 6d 3d c2 5d 85 bb
       0.016889602 0.05069343 0.058052856 -0.0040700147
000170 49 ae 81 3d c9 1f 00 be de 70 03 3d d8 e5 0b 3e
       0.063320704 -0.12512125 0.03209006 0.13661897
000180 0b 00 48 3d 42 fc 0a 3e 99 17 c5 3d 17 49 53 bd
       0.048828166 0.13572791 0.096236415 -0.051583376
000190 f2 42 80 bc f3 98 7e 3d 57 69 61 bb 51 e9 9c 38
       -0.015656922 0.062157582 -0.0034395063 7.482118e-05
0001a0 03 8a 87 3d 9a 18 2d b9 f8 9d 67 3c 3f 16 45 bd
       0.066181205 -0.0001650773 0.014136784 -0.04811692
0001b0 d1 f6 fb 3a f4 9b e7 b9 f1 99 ba 3c 12 f6 08 3e
       0.0019223337 -0.00044175948 0.022778483 0.13375118
0001c0 d3 a6 0e 3d cd d0 64 bd db 78 41 3d 1e 08 3f 3a
       0.034827065 -0.05586319 0.047234397 0.00072872813
0001d0 9c 38 96 3a 4b f3 06 3b d9 6f 53 bb d2 3d 10 bc
       0.0011460963 0.0020591791 -0.0032262711 -0.008803802
0001e0 b9 f4 66 3b 25 a9 55 ba a5 8c ce ba b6 c6 6f 3b
       0.003524108 -0.00081505097 -0.0015758468 0.0036586947
0001f0 c4 97 2a 3d bc 5d 11 3b 02 6a b3 b8 5e 92 fa ba
       0.04164864 0.0022181114 -8.5551306e-05 -0.0019117107
000200 0b 25 57 bd af e6 05 ba 38 54 e2 bb 0b 80 01 bc
       -0.05252556 -0.0005107922 -0.0069070123 -0.007904063
000210 84 00 cd bc 7e bc 45 bb 72 a1 c4 bc 42 b9 fd bc
       -0.02502466 -0.0030172165 -0.024002764 -0.030972127
000220 8d 29 3a 3d 5f 80 d7 3c 5c 93 bd bc 39 ed 41 3d
       0.045449782 0.02630633 -0.023141555 0.047345374
000230 3e e8 76 39 3f 34 68 bb 85 30 d5 ba dc 40 34 3c
       0.00023546905 -0.0035431532 -0.001626507 0.011001792
000240 d4 8a 03 3d ed 8b c9 bc 81 60 61 bc 19 34 9d bb
       0.03211482 -0.024602855 -0.0137559185 -0.0047974703
000250 37 11 41 3d 1c 53 31 3c ec 6a 9f bb 27 3f 95 3a
       0.047135558 0.0108230375 -0.004865041 0.0011386619
000260 3f 5b 40 3d 9d 90 07 3b 99 28 49 bc 9a 52 6e 3c
       0.04696202 0.0020685561 -0.012277746 0.014546061
000270 07 93 55 3d 89 5a 0d 3d 4e c0 ee 3c e4 1e 20 3d
       0.05214217 0.03451017 0.029144432 0.03909196
000280 ed 0e 8c 3a 09 16 9b 3a 87 d0 d4 3a fa 7f a9 bc
       0.00106856 0.0011832129 0.0016236462 -0.020690907
000290 2a d7 2e bd 99 70 e4 3a 0c 6a d0 39 fe d6 af bc
       -0.042685665 0.0017428576 0.00039751863 -0.021464821
0002a0 83 af 13 bc e6 a7 a4 bc b8 27 29 bc a8 59 2f bd
       -0.009014013 -0.020099591 -0.010324411 -0.042810112
0002b0 1f 97 ab 3a e5 d0 b1 3c 17 a9 79 bb 2c d9 b0 3c
       0.0013091302 0.021706054 -0.003809517 0.02158793
0002c0 44 a8 05 3d ab 0d b9 3d d5 60 41 ba 7e a9 b6 3c
       0.032631174 0.0903581 -0.0007376795 0.022297617
0002d0 f2 6c f1 bc 24 fb 0d 3d 11 09 ac bd 9d e9 b6 3d
       -0.029470894 0.034663334 -0.08400167 0.08931277
0002e0 8d 4d 17 bd 1a 14 aa 3d 59 c8 0c bd bf e4 43 3c
       -0.036939193 0.08304615 -0.034370754 0.011956393
0002f0 7e bc 7e 3b bb 43 4e 3d 54 68 c7 bc db d3 51 3b
       0.0038869674 0.05035756 -0.02434174 0.0032017145
000300 bf c4 4a 3d 45 f7 92 bd 13 95 65 3d 33 62 8b 3d
       0.049504038 -0.07176069 0.05605037 0.068058394
000310 c2 15 c0 bd e2 48 c8 b9 02 1c 83 3b 6c 93 84 ba
       -0.0937915 -0.00038201275 0.0040011415 -0.0010114736
000320 ac ee dc bd 71 8d 20 3d 9e 4b 5a bd bf 44 41 bd
       -0.107877105 0.03919739 -0.05329477 -0.047184702
000330 a2 54 49 3d 27 61 a0 bd 72 ec 42 3d 4f 37 da 3c
       0.049152978 -0.0783103 0.047588773 0.026637701
000340 4e a9 62 3d 58 96 78 bd 5c aa b5 3d e1 af cf bd
       0.055337243 -0.060690254 0.08870384 -0.10140968
000350 62 32 a4 bd 83 c5 80 bd 71 72 d5 3d 8b 3e 50 3d
       -0.08017422 -0.06287672 0.104222186 0.050840896
000360 f1 48 a3 3c 87 08 e5 3a 54 91 88 bb ed 72 23 3a
       0.019932242 0.0017473855 -0.004167715 0.0006235082
000370 fb f1 86 3c d8 33 92 bb 2d 61 5f 3a e2 88 79 b8
       0.016472807 -0.0044617467 0.0008521255 -5.949371e-05
000380 37 2a db ba f8 31 15 3d c6 a2 9d bd 62 a8 08 bd
       -0.0016720955 0.036424607 -0.07697062 -0.033363707
000390 23 57 8c bd 8b 93 d0 b9 e3 12 8e bc ee 67 9d bb
       -0.068525575 -0.0003978278 -0.01734299 -0.004803649
0003a0 e6 0b 73 bc 18 2e b9 3b 56 4e f1 3c 74 1c 01 ba
       -0.01483438 0.0056512468 0.029456299 -0.00049251993
0003b0 e1 79 a4 bb c9 45 21 3c 82 cf 17 3c 4f e5 23 bd
       -0.005019412 0.009843298 0.009265782 -0.040013608
0003c0 d8 b2 b2 bd 50 07 a6 bd fe ae 84 3d 16 18 f0 3b
       -0.08725518 -0.081068635 0.064786896 0.00732709
0003d0 92 14 8b 3c 2e 24 a3 bd 0e c4 18 3d de 76 59 3c
       0.016977582 -0.07965885 0.037296347 0.013272969
0003e0 56 23 f2 bb 0c 7a ab bd 7f a4 6b bd fa d4 1f bc
       -0.0073894663 -0.08372888 -0.057529923 -0.009755367
0003f0 ee 55 d5 3c b2 00 a1 3d 46 35 f0 ba 0b f5 b6 3c
       0.026041951 0.07861461 -0.0018326424 0.022333642

conv1.convs.<course___has_student___student>.lin_l.weight f4 [128, 57]
000000 32 3a 50 3d 4e 09 a6 3c 95 50 6a bd ae ea 1b 3d
       0.05083675 0.020268109 -0.057205755 0.038065605
000010 b8 f7 fe bc db 36 26 3d 1d 1b 75 3d 2a af 57 3c
       -0.03112398 0.040579658 0.05984031 0.013164321
000020 58 5e 43 3c 2d 10 a7 3d d4 72 f1 bd b3 98 96 3d
       0.011924349 0.08157382 -0.1178948 0.07353344
000030 33 01 9b 3d 45 26 54 3d 12 9f 70 bc ed 2a 63 3c
       0.07568588 0.05179431 -0.014686363 0.013865215
000040 39 c6 c7 3d 74 e5 ca 3d 68 56 aa bd 55 9a 1d 3e
       0.09754605 0.09907046 -0.08317262 0.15390904
000050 df 0c 16 bd c5 ea f6 bc 51 3c 3c bb 6b c0 6b 3c
       -0.03663337 -0.030141244 -0.0028722475 0.014389138
000060 aa b7 8b bd 87 47 ae 3d ab f3 03 b9 65 02 4c 3d
       -0.068221405 0.085097365 -0.00012583907 0.04980697
000070 ca 9c 01 3a 1a ec 13 3e bb 8a b7 bd 8e f4 bf bd
       0.0004944323 0.14445534 -0.089620076 -0.09372817
000080 30 34 92 3d 06 41 bc 3a 00 59 e1 3d 7f 6e 46 bd
       0.0713886 0.001436264 0.110033035 -0.04844522
000090 1c d1 9d 3d a7 ef d2 bd 23 6f 42 bd 6e 8e d5 bb
       0.077059 -0.10299616 -0.04746927 -0.006517223
0000a0 0f 05 a6 bd 4d a0 fc 3c 52 1d 07 3e a5 d5 de 3d
       -0.081064336 0.030838156 0.13194779 0.10880593
0000b0 ba 2f a0 3d 2b e8 b1 bd 0f b8 79 39 d6 8e 36 bd
       0.07821603 -0.08686861 0.00023815058 -0.044569813
0000c0 d5 04 e3 b9 2d b9 43 3c 36 fc be 3c 13 0c f9 ba
       -0.00043300414 0.011946005 0.023313623 -0.0019000791
0000d0 63 1d 00 bb ea 9c f5 3d c1 83 03 3e 92 3a ca bd
       -0.0019548766 0.119928196 0.12843229 -0.09874453
0000e0 67 30 95 bb 05 de 77 bd e8 51 ef bc dc 80 fe 3d
       -0.004552889 -0.06051447 -0.02921386 0.12426922
0000f0 d8 7d 27 bd ad aa 9e bd 3a 57 09 bd 25 96 96 3d
       -0.0408915 -0.077473976 -0.03353045 0.073528565
000100 5a 9a cf bd 89 58 eb 3d f8 04 90 bd 39 59 b9 bd
       -0.10136862 0.11491496 -0.07032198 -0.09050221
000110 e1 b5 24 3c ce 63 c8 bd 51 0c 51 bd 48 eb b5 bd
       0.010053129 -0.09784661 -0.051037136 -0.08882767
000120 70 25 0f 3d 59 21 df bc c1 3b 4e 3d fb 2d 2e bd
       0.034947813 -0.027237581 0.050349955 -0.04252432
000130 7a 70 9f bd 49 5a 6b 3d 51 81 7d 3d ac 7a 7f 3d
       -0.07785125 0.05745915 0.061890904 0.06237285
000140 70 76 f2 bd ce 4a c5 3d 29 0a ab b9 51 4e 5f b9
       -0.118389964 0.096334085 -0.00032623232 -0.00021296112
000150 b2 60 f1 bc c4 03 97 3a d7 ea e4 bd c3 60 0b 3d
       -0.029465053 0.0011521508 -0.11177605 0.034027826
000160 09 83 fe 3d e8 13 86 3b 24 65 f4 bd 58 83 c6 bc
       0.12427337 0.0040917285 -0.119333535 -0.024232551
000170 be ab 93 bd 66 06 76 bd 40 07 d4 3d f2 b7 10 3e
       -0.072104916 -0.060064696 0.10352945 0.1413267
000180 e7 d6 d9 bd 70 ee b6 bd 49 dd 1c 3c 6c c0 03 3d
       -0.106366925 -0.08932197 0.009574243 0.03216593
000190 d2 2d ae bd 89 09 f1 bd 98 56 4e bd b1 bd 99 3a
       -0.08504833 -0.11769397 -0.05037555 0.0011729506
0001a0 79 28 f8 3c 69 cf 10 b9 23 61 85 bd 26 5b 3b 3d
       0.030292736 -0.00013810176 -0.06512668 0.045741223
0001b0 49 a0 ae b7 b0 2c 8d 3a ab 3b 36 3d af 23 b4 bd
       -2.0817055e-05 0.0010770764 0.044490498 -0.087958686
0001c0 81 74 cb 3c 09 4b 86 bc 12 4c bd bd ba 28 1a bb
       0.024835827 -0.016393201 -0.09243025 -0.002352281
0001d0 3d 99 9a bd af 1b af 3d 7e ab dc 3c cd 63 c2 bd
       -0.07548759 0.08550202 0.026937243 -0.09491692
0001e0 d3 a3 d3 3d 71 42 46 bc b3 06 7a bb 79 6c b2 bc
       0.10333981 -0.012100802 -0.0038150966 -0.02178024
0001f0 bb e9 6c 3d e7 fe 0e bd 4c 24 ab bd 8b 56 fb 3c
       0.05784009 -0.034911063 -0.083565325 0.030680915
000200 e3 31 57 bd b4 e1 c1 bd 16 e4 95 bd d2 0d 9c 3d
       -0.05253781 -0.094668776 -0.073188946 0.076198235
000210 a1 e4 68 3d 06 9d a9 3d b7 48 a1 3d b8 f9 cb bd
       0.056858663 0.08281903 0.078751974 -0.099597394
000220 19 b4 87 bd 44 11 3d 3d c8 73 da 3d 52 42 f1 3d
       -0.06626148 0.046159044 0.10666615 0.11780228
000230 a8 01 fa 3a 55 80 8c 3d 1e 3b 71 3a af 11 a5 bd
       0.001907398 0.06860415 0.00092022296 -0.080600135
000240 b1 45 87 bb 0c ee 96 bc f0 a9 37 3a 6f a4 cc bd
       -0.004128181 -0.018424056 0.00070062187 -0.09992301
000250 ce c5 b5 3d 51 e9 81 bd 6b cf 0b bd ad 45 0f 3e
       0.08875619 -0.0634333 -0.034133356 0.13991423
000260 91 36 a8 bb 3f 04 d0 bc f1 3c d3 3d b0 7c 4b bc
       -0.005133458 -0.02539265 0.10314358 -0.012419865
000270 f0 bd c2 3d 05 bc 8b 3d ec 81 b4 3d fb 10 03 3e
       0.09508884 0.06822971 0.08813843 0.12799446
000280 91 d9 47 39 66 f8 a0 3d 1d 35 e0 36 10 7a 3d bc
       0.00019059169 0.07859878 6.6819034e-06 -0.0115647465
000290 e1 8d d8 3c 18 69 bb 37 53 f4 af b9 08 c5 de bc
       0.02643484 2.2341075e-05 -0.00033560637 -0.027193561
0002a0 66 eb 03 3b fc ae ac 3d df cc 5f bd 1b 92 57 3d
       0.0020129322 0.08431813 -0.05463874 0.05262957
0002b0 0d 28 21 bd ff 5c ac bd 87 80 29 bd 63 c6 36 bd
       -0.039344836 -0.08416175 -0.04138234 -0.04462279
0002c0 fc 79 c4 3d bd 49 c4 3d d4 f4 82 bd 3e bd 40 bd
       0.09593579 0.09584377 -0.063943535 -0.047055475
0002d0 10 01 84 3c 72 f1 ab 3d 42 da a7 3c 3e cf c4 3d
       0.016113788 0.083956614 0.020489816 0.09609841
0002e0 f4 11 11 3d 02 e8 de 3d f4 26 b6 bd 05 43 56 3d
       0.035417512 0.10884096 -0.088941485 0.05231001
0002f0 b0 2c 96 bd 7f 36 9d bd 59 a8 67 3d 3b be fe bc
       -0.07332742 -0.0767641 0.056557033 -0.031096568
000300 00 93 e0 3d 10 4a de 3d 75 81 89 3d ea 55 96 bd
       0.10965538 0.1085397 0.06714145 -0.073406056
000310 6d e1 90 3d 5f af b0 3a 1f 14 94 3d b9 6f 60 b9
       0.070742466 0.0013479999 0.072304 -0.00021403925
000320 18 71 00 3e a8 60 38 bd 85 4f cf 3d 9e c2 93 bc
       0.12543142 -0.045014054 0.10122589 -0.018037137
000330 1a 21 a3 bd 18 25 36 3e 5f f9 db bd 8b 2d ef bd
       -0.07965298 0.17787588 -0.10740923 -0.116786085
000340 3b 7f 8c bd 6a 88 53 3d c2 d7 f5 3d a2 54 56 3c
       -0.06860205 0.051643766 0.12004043 0.0130817015
000350 92 45 d8 bd 3f 75 90 3d a4 75 05 3e f7 ee 40 bd
       -0.105601445 0.07053613 0.13033158 -0.047102895
000360 9f 99 07 3d af c0 46 ba 92 2c c9 3d be 9e 10 b8
       0.03310549 -0.00075818127 0.09822954 -3.4480116e-05
000370 92 78 06 3e a8 ae 90 3b e2 56 bb 37 b8 1e fd ba
       0.13131931 0.004415352 2.2332595e-05 -0.0019311523
000380 be 61 b4 3d 3b fa 0a 3e 09 d4 cd bc c7 13 db bd
       0.08807705 0.13572018 -0.02512552 -0.106971316
000390 65 dc aa bc ee 3f 8c bd c6 c3 03 3e ee 35 eb 3c
       -0.020857045 -0.06848131 0.1286765 0.02871224
0003a0 8f 7e 49 bd cc aa 8d bd 28 37 42 be f1 96 d6 3d
       -0.04919296 -0.069173425 -0.18966353 0.104780085
0003b0 84 7e 01 3e ee 0a b7 bd 53 f8 9a 3d a8 74 bd bd
       0.12645918 -0.089376315 0.07566895 -0.09250766
0003c0 45 32 31 3d 47 29 20 be e8 60 f4 bc 52 1b 28 bd
       0.04326083 -0.15640746 -0.029831365 -0.04104168
0003d0 39 20 0f 3e 48 bc 9f bc 74 e9 03 3d b6 10 de bd
       0.13977136 -0.01949896 0.03220506 -0.10843031
0003e0 c6 64 ad bd 7a 9a 33 3b 2a 3c df bd 82 ab 10 3e
       -0.08466487 0.0027405308 -0.10900147 0.14127925
0003f0 8c 25 b7 3d 2b 77 d3 3c 96 d4 05 39 9d 90 e2 bd
       0.089427084 0.02581366 0.00012763063 -0.11062739

conv1.convs.<course___has_student___student>.lin_l.bias f4 [128]
000000 24 87 03 be bf 85 4b bd f2 f2 b2 3d a5 b7 3f 3d
       -0.12844521 -0.049688097 0.087377444 0.046805996
000010 bd 5a 3d 3d 38 1b 9c 3d 8d b9 75 3d aa 38 e2 3d
       0.046229113 0.07622379 0.05999141 0.11045964
000020 1e 95 d9 3c 6c 0c ce bd a7 97 2e bc d5 84 af 3d
       0.026560362 -0.10060963 -0.010656274 0.085702576
000030 2b 9c 0b 3c 6c 34 e1 3c 04 9a 9b 3d e1 90 03 be
       0.00852112 0.027490817 0.075977355 -0.12848236
000040 cb 12 36 ba 32 a4 99 3c 6e 5b 1b be f7 59 ab 3d
       -0.00069455494 0.018755052 -0.15171596 0.08366769
000050 82 9c d7 3d a9 79 95 bd 73 97 64 3d 05 61 17 be
       0.10527898 -0.072985955 0.055808496 -0.14783104
000060 95 e9 37 bd eb fa 34 ba a1 ef d0 bd af 8a da bd
       -0.044900496 -0.0006903845 -0.102019556 -0.10670983
000070 4e 19 22 3d 83 5a 15 be f2 8d 98 bc 4e 9c 23 be
       0.039574914 -0.14585309 -0.018622372 -0.15977594
000080 67 93 24 3c 7a 5b 2e bd f1 26 10 be 50 7c ce bc
       0.010044909 -0.042567708 -0.14077355 -0.025205761
000090 d8 09 94 bd f0 2f b8 3d c4 10 1e bc e5 2e f2 3b
       -0.0722844 0.08993518 -0.009647552 0.007390844
0000a0 0b 2d 86 bd 4c 0b 07 be 85 a6 f9 3d 5d 42 1e be
       -0.0655156 -0.13187903 0.12189964 -0.15455003
0000b0 62 f4 47 bd 5c 6c 3f 3d 98 40 a9 3d 00 be 96 bd
       -0.048817046 0.0467342 0.082642734 -0.073604584
0000c0 30 87 23 3c 75 13 da bc 6d c0 d7 3c 85 30 65 bd
       0.009980962 -0.026620606 0.026336873 -0.055954475
0000d0 36 62 72 bc f9 4c e4 3d 36 2b ff bd 6b 58 b6 3d
       -0.014793923 0.11147494 -0.12459414 0.08903583
0000e0 ac 62 de bd 56 29 82 3d 92 2b 3e bd e9 65 4c 3d
       -0.10858664 0.063555405 -0.04642827 0.049901877
0000f0 16 0f 53 bd 76 5a dd 3c d4 0e b0 bd 5e ef 01 3d
       -0.05152806 0.027020674 -0.08596578 0.03172242
000100 13 1b cc 3d d0 b9 20 be 3b 03 de bc 42 bd 91 3d
       0.099661015 -0.15695882 -0.02710115 0.07116176
000110 12 d5 c0 bd 31 c1 07 be ed c9 a9 bd 4a 65 0f be
       -0.0941564 -0.1325729 -0.082904674 -0.14003482
000120 8b dd 40 be 6d d0 67 3c 8c ef 95 bd 28 b1 9c bd
       -0.18834512 0.014148814 -0.073210806 -0.076509774
000130 1d 53 90 3d 8f 9a e1 bd 7e 90 7a bc 60 d7 7e bd
       0.070471026 -0.11015808 -0.015293239 -0.062217116
000140 d4 f4 88 bd ab 2b bd bd 2c cd 9a bd fe 44 dd 3c
       -0.06687322 -0.09236845 -0.07558665 0.027010437
000150 bb d6 a6 bd b5 21 b5 3d 80 26 5f bc 3f 75 4c 3d
       -0.08146425 0.0884432 -0.013620019 0.049916502
000160 8a 39 b5 bd 8f fb 22 be fb 15 16 3c 7a 56 5e 3c
       -0.08848865 -0.15916274 0.009160514 0.013570422
000170 1b e5 4e bd 8a a9 41 be 1f 41 c9 bd 5d ce 64 bd
       -0.05051146 -0.1891233 -0.09826874 -0.055860866
000180 a2 90 8d bc 16 4a 55 3d ba 34 91 3c b1 20 1e 3c
       -0.01728088 0.052072607 0.017725337 0.009651349
000190 2c 42 37 bd 62 73 2b 3b c2 9b 05 3d 78 2a 06 bd
       -0.04474084 0.0026161303 0.032619245 -0.032755345
0001a0 ac de b5 3b 18 ef 53 3d 4f dd a8 3d a8 39 8b 3d
       0.005550226 0.05174169 0.08245336 0.067981064
0001b0 58 8d e0 3c 98 bb bd 3d 29 75 f3 bd 2a 8e e6 bd
       0.027411148 0.09264296 -0.11887581 -0.112575844
0001c0 38 fd d1 3c 29 63 39 bd e2 3f 08 bd 31 97 d5 3d
       0.02563344 -0.045260582 -0.03326405 0.10429228
0001d0 18 c4 0e be b4 de 83 3d 36 37 69 3d 0f f4 d2 3b
       -0.13941991 0.064389616 0.05693742 0.0064377855
0001e0 b4 ad 59 3d f0 b2 ec bd 33 31 51 3d 9e 1b ab bd
       0.05314417 -0.11557567 0.05107231 -0.08354877
0001f0 9f 39 bd 3d 05 8c 57 bd 96 3d 09 be a2 8f e0 bd
       0.09239506 -0.052623767 -0.134024 -0.10964896

conv1.convs.<course___has_student___student>.lin_r.weight f4 [128, 57]
000000 7a f5 b6 bd 91 5f 9d bd 6c ee 0f bb 44 8a 03 be
       -0.0893354 -0.076842435 -0.002196218 -0.12845713
000010 23 ca b5 bd e4 64 c7 3d c0 7e 0b bd c4 12 41 3d
       -0.08876445 0.0973604 -0.034056425 0.047137037
000020 05 0d 56 bc b2 df 7d 3d 2d 12 4c bd 85 78 65 3d
       -0.013064628 0.06198091 -0.04982202 0.05602314
000030 1b 13 42 3d ab b5 86 bc b1 73 99 3d de 0f da bd
       0.0473815 -0.016444048 0.074927695 -0.10647558
000040 90 9c ee 3c 56 4f 7b bd dc 99 91 bd c3 51 99 bd
       0.02912739 -0.061354958 -0.071094245 -0.07486298
000050 a8 2c 54 3d fc 1a 06 3c 39 a5 1c 3d d9 3e ab 3d
       0.0518004 0.0081851445 0.038243506 0.083615966
000060 2e e1 b3 3d b3 29 7f 3d a0 7a 14 3a 43 85 80 bd
       0.08783184 0.062295627 0.00056640245 -0.06275418
000070 f6 a0 fb ba dd a4 06 be 4c 7a f0 bd 43 51 ca 3c
       -0.001919775 -0.13148828 -0.11742076 0.024696952
000080 24 c4 02 bd c0 d8 b8 bd 84 68 d3 3c 1a e0 fc bd
       -0.031925336 -0.09025717 0.025806673 -0.123474315
000090 43 d0 29 bd 21 79 db bc 92 d2 c9 3c c1 e5 a6 bd
       -0.04145838 -0.026791157 0.02463654 -0.08149291
0000a0 4d 7d bc 3c 51 c1 14 bb d0 ee e5 3d 76 b1 93 bd
       0.023008967 -0.0022698233 0.112271905 -0.07211582
0000b0 a3 89 e0 3c b0 40 9c bd 55 65 bf ba 2c 5c c0 3c
       0.02740938 -0.07629526 -0.0014602343 0.023481451
0000c0 0f de 84 b8 c9 9f bb 3d f1 16 38 bd 5b dd 14 3a
       -6.335612e-05 0.09161336 -0.044943754 0.00056787365
0000d0 4d 7b 42 39 84 a4 b0 3d 39 58 67 bd f6 4a 17 3d
       0.00018547215 0.08625129 -0.05648062 0.036936723
0000e0 46 8e 8f bd 37 c5 60 bd 41 3d 84 3d 80 00 41 bd
       -0.070095584 -0.05487558 0.06456996 -0.047119617
0000f0 2b a0 a5 3d 75 6b eb bd e4 95 e0 3d 2a c2 f2 bd
       0.0808719 -0.11495105 0.10966089 -0.1185344
000100 95 8c 7f 3d 7c b4 ad 3c 83 ac e7 bd 57 3e d2 bd
       0.06238993 0.021204226 -0.11312201 -0.10265797
000110 a9 49 3c bd 47 2f 18 bd 6f d8 97 3d d2 5f ce 3c
       -0.045968685 -0.037154462 0.07414328 0.025192175
000120 b4 a9 ed 3d 77 67 ab bd 60 71 92 3d 75 03 dc 3d
       0.11604634 -0.08369344 0.07150531 0.10742847
000130 cf 47 6a 3d 06 88 1e bd f8 21 ca 3c 7f 0e 77 3a
       0.05719739 -0.03870394 0.0246744 0.00094244623
000140 42 88 aa 3d 0a 73 2a 3d 8c 64 d6 3d fa 6f 91 ba
       0.0832677 0.041613616 0.104683965 -0.0011095994
000150 7c 27 e2 bb e7 0d b0 3a 23 4d 98 3b db 85 ce bd
       -0.0069016796 0.0013431878 0.0046478673 -0.10084125
000160 c4 6d af 3d 84 42 b4 3c bf 5f 78 bd 0b d5 a4 bd
       0.08565858 0.022004373 -0.060638186 -0.08048447
000170 59 8c 5c 3b 15 0c ba bd f5 b9 a5 3d b8 35 cf bd
       0.003365299 -0.09084336 0.08092109 -0.10117668
000180 85 22 d9 3b 67 62 21 3b 53 0a b0 bd 73 fd 86 3d
       0.0066264295 0.0024625303 -0.08595719 0.0659131
000190 7f f8 cb bc 38 76 52 bd 09 5d 28 bd a8 9d 1b 3a
       -0.024898766 -0.051382273 -0.04110435 0.00059362734
0001a0 e8 44 6b 3d e7 b8 29 b9 8f 59 04 be fb df 95 3d
       0.05743876 -0.00016185977 -0.12924789 0.073181115
0001b0 bd 90 e0 3a 7b 32 d4 b8 50 65 ad 3c ee 64 24 bd
       0.0017132979 -0.000101183505 0.021166474 -0.040135317
0001c0 60 90 d5 bd ca df 1e bd 0c 9e b6 bd 4c 2f 9d 3d
       -0.10427928 -0.03878764 -0.08916864 0.07675037
0001d0 a1 65 1f 3d d1 9a 39 3d 31 60 1a 3d cc 3d 95 bd
       0.03891528 0.04531366 0.03768939 -0.072871774
0001e0 41 21 4f 3c 46 04 01 3e ca 24 88 3c 27 85 63 3d
       0.012642206 0.12599286 0.016619105 0.055546906
0001f0 a2 3e c5 3d b4 f6 b0 bb 92 54 13 3d 45 d4 14 bd
       0.09631087 -0.005400503 0.035969324 -0.03633525
000200 62 94 7f bd 85 ee 6e bd b8 1b 34 3d 7e ab 84 b8
       -0.06239737 -0.05833294 0.043971747 -6.3261934e-05
000210 e0 c0 02 be 1f 13 bb 3d 86 2c a0 3d 5e c4 9d bc
       -0.12768888 0.091345064 0.07820992 -0.019258674
000220 67 06 09 bd e3 43 e8 bd cd 5b 53 3c ba 5a 9b 3c
       -0.03345337 -0.11341073 0.012900305 0.01896416
000230 77 3c 00 b9 2e 36 e8 bd 7f 86 f1 3a 61 b2 f2 bd
       -0.00012229556 -0.11338459 0.0018426924 -0.11850429
000240 da ad e5 3d c8 e8 cc 3d 5d a9 62 3c ef 07 b7 bd
       0.112148 0.10005337 0.013834325 -0.0893706
000250 08 ec 00 bd 49 0d a0 3d 71 be a9 bd ef 9c 04 bd
       -0.031475097 0.07815034 -0.08288277 -0.032376226
000260 6c 22 e0 bd 81 8e 75 3d 4a 48 09 bb ce 6a 78 bc
       -0.109440655 0.059950355 -0.0020947629 -0.015162183
000270 6a 0a ac bd b9 5f 80 bd 3f a2 65 3d 75 af ef bd
       -0.08400424 -0.06268258 0.056062933 -0.11703388
000280 be 69 ed b9 44 a4 ac 3d bb 42 9f 39 f5 2d be 3d
       -0.00045282947 0.08429769 0.0003037656 0.09286109
000290 b0 8c 9f 3d 1d d0 83 38 74 c1 7e b7 bc 43 06 be
       0.07790506 6.285331e-05 -1.5184622e-05 -0.13111776
0002a0 80 59 cf bd ad af 3a 3b 64 85 86 3d 42 6d c1 3b
       -0.10124493 0.0028486059 0.06568411 0.005902917
0002b0 7b b2 09 bd 83 6d dc bc 5a 26 66 bd 79 4a df 3d
       -0.033617478 -0.026907688 -0.05618892 0.109028764
0002c0 34 3d ec 3d cc 60 24 bd d2 69 a3 3c 88 56 c8 3c
       0.11535111 -0.040131375 0.01994792 0.024455324
0002d0 78 49 12 3e 56 da db 3d 0e 73 86 bd 81 ba 09 bd
       0.14285839 0.10735004 -0.06564914 -0.03362513
0002e0 1b a3 75 3d 4e bf 82 3d 70 1b 71 3d e3 74 f9 3d
       0.059970003 0.06384145 0.058864057 0.121804975
0002f0 e8 2b d9 3d 6f f4 8c 3d 94 64 98 bd 48 5b f3 bd
       0.106040776 0.068825595 -0.07441059 -0.11882645
000300 2e 83 db bd 36 8c 7b bc a8 65 13 3a 7c 8a 82 bd
       -0.1071838 -0.015353253 0.0005622753 -0.0637407
000310 a4 c0 e7 3d f1 a6 d1 3a 8b ca f8 bd df a6 41 39
       0.1131604 0.0015995187 -0.12148007 0.00018468079
000320 75 e2 a4 3c 39 50 58 3c fe 14 63 bd 01 9c 1e 3d
       0.020127514 0.01320272 -0.05543994 0.038722996
000330 78 52 b6 3d 56 47 e8 bd 2c 69 40 3c c5 cb c3 3d
       0.089024484 -0.11341731 0.011743825 0.0956035
000340 5a 75 f9 bd 7f 34 e5 bd b0 8c 85 3d d0 23 3e bc
       -0.12180586 -0.111916535 0.06520975 -0.011605218
000350 d4 83 64 bd 1d a4 40 bd bc 6f 50 bd 78 49 de 3d
       -0.055789784 -0.04703151 -0.05088781 0.10853857
000360 dc 4e b2 bd e3 cb 21 3a a3 4a 99 3d f9 4c ec 39
       -0.087064475 0.0006172044 0.07484939 0.00045070777
000370 04 2e 02 3e bc 6d ea bc b3 9c 90 ba 5d 2e d4 b8
       0.12712866 -0.028616779 -0.0011033028 -0.000101175836
000380 41 e9 ba bd c0 98 ab 3d 01 e0 3c bd 7f 7b de 3d
       -0.09126521 0.08378744 -0.046112064 0.10863399
000390 6f 9d a1 bc aa 8d 49 3d fd 98 17 bd da b7 d0 bd
       -0.01972839 0.049207367 -0.037011135 -0.10191317
0003a0 31 f3 d2 3c 45 a9 d3 bc 56 84 4f bc 27 4a 91 3d
       0.025750728 -0.02583755 -0.012665829 0.070942216
0003b0 fd 2c c5 3d e5 14 6e 3e de a0 17 bd ea 4d 99 bc
       0.096277215 0.23250158 -0.03701865 -0.01871391
0003c0 87 ba a8 3d 74 7f 22 bb e4 47 6f 3d c0 93 82 3d
       0.08238702 -0.0024795206 0.05841817 0.06375837
0003d0 0e f2 4f bd 04 fa 5f 3d dc ae b8 3d cc 4c f7 bd
       -0.05076795 0.054681793 0.09017727 -0.12075195
0003e0 56 37 80 bd 35 50 97 bc 61 84 b8 3c 4a 7e c7 3c
       -0.062605545 -0.018470863 0.02252406 0.024352212
0003f0 cc 95 d1 3d 6f 82 92 3d fe 23 c5 39 eb f7 6f bd
       0.102336496 0.071537845 0.00037601584 -0.058586042

conv1.convs.<student___same_course___student>.lin_l.weight f4 [128, 57]
000000 94 b4 db bb ec 6c 02 3d eb b3 93 3d 47 f4 24 bb
       -0.006704876 0.031842157 0.07212051 -0.0025170015
000010 28 40 77 ba f1 74 6c 3d 89 7b d8 3d 1c 7e a4 3c
       -0.0009431862 0.05772871 0.105704375 0.020079665
000020 d9 c6 aa bd bb 3b 2e 3d 49 56 2a 3d e8 b2 6c bd
       -0.083387084 0.042537432 0.041586194 -0.057787806
000030 36 80 88 bd f9 58 8e 3c 91 57 d1 3d 24 83 95 3d
       -0.06665079 0.01737641 0.1022178 0.07300404
000040 9e 42 a4 3c ae 4b ee 3d b1 0e d3 3d 9e ee 84 3c
       0.020051297 0.116355285 0.103055365 0.016227063
000050 47 85 92 3d c3 a9 87 bd d5 b2 0f 3d ca d0 fb 3d
       0.07154327 -0.06624176 0.035082657 0.12295683
000060 a4 d5 4b 3d cf a6 28 bd 89 d9 e5 3a af e0 b8 bc
       0.04976429 -0.041174706 0.0017536144 -0.022568075
000070 90 07 e9 3a 03 3b c1 3d fa a7 a5 bc 1f 22 ef bc
       0.0017778743 0.09435084 -0.020221699 -0.029191075
000080 d9 95 ea bd 6a 24 a2 bd de ea c7 bd 8e 01 de bd
       -0.114543624 -0.07917102 -0.09761594 -0.1084014
000090 61 26 e5 bd 81 f9 79 3c b1 19 e7 3b 7b ea b5 bc
       -0.11188961 0.01525724 0.007052623 -0.022206536
0000a0 e3 15 f1 bc 80 e3 4d 3d 7e c6 ed 3d b1 49 e9 3d
       -0.029429382 0.05026579 0.11610125 0.11391009
0000b0 dd 57 b0 3d 59 f8 82 bc 88 e3 c1 b9 aa e3 47 bc
       0.086105086 -0.015987562 -0.00036981353 -0.012200275
0000c0 76 e8 3d ba 9e f2 60 3d 94 bd f9 3d 30 d4 43 ba
       -0.0007244417 0.054918878 0.12194362 -0.0007470278
0000d0 42 56 57 39 f0 79 c6 3d 7e e5 07 3e de 00 bc bd
       0.00020536131 0.096912265 0.13271138 -0.09179853
0000e0 f9 04 69 3d 01 2d 03 3d 7e c5 a7 bc 05 2b cd bd
       0.056889508 0.03202534 -0.020479914 -0.10017971
0000f0 a3 54 a8 bd 8b ac 55 3d 3f 82 2b 3d 65 ef e4 bd
       -0.08219268 0.052166503 0.04187226 -0.111784734
000100 f3 84 82 bb fc 41 ed 3d c3 bd 60 3d db 62 96 bd
       -0.003983134 0.11584851 0.05486847 -0.07343074
000110 53 6a 19 3e a3 9b 27 bd f0 d6 a0 3d e2 6b 16 3d
       0.14981966 -0.04091991 0.07853496 0.03672398
000120 3b f2 ff 3d dc 5f 81 3b 8e 26 cd bd 0f 3d eb 3d
       0.12497374 0.003948195 -0.10017119 0.114862554
000130 24 4c 38 bc b6 05 b2 bd cc 9e 90 3d df e1 42 bc
       -0.011248622 -0.086924955 0.07061538 -0.011894672
000140 48 f2 d7 3d 5d e2 bc bd 4a 46 f6 3d 31 dc d6 38
       0.10544258 -0.09222863 0.12025125 0.00010245329
000150 82 ab ae bd 1a 2f ff ba c9 f9 81 3d 89 e8 7a bd
       -0.08528806 -0.0019468993 0.06346471 -0.06125692
000160 bf c0 55 bd 5a 35 8b 3d 6a c3 e1 bd 03 30 fb 3d
       -0.05218577 0.067972854 -0.110236004 0.12265017
000170 3c db 9b 3d 85 fb 53 bd 1f c7 2e bd d1 6c 33 ba
       0.07610175 -0.05175354 -0.042670365 -0.0006844523
000180 5d 47 1b 3d 93 0c 60 bd 68 1d 26 3d a0 de e7 bd
       0.037909854 -0.05469949 0.040555388 -0.11321759
000190 19 3f 05 bd 2f b7 d0 bd 12 11 ee bd 58 9a ba b9
       -0.032530878 -0.101911895 -0.1162435 -0.0003559168
0001a0 c5 c2 3c bd 05 8e 84 3a d4 f0 fb 3d 23 7d af bd
       -0.046084184 0.0010113126 0.12301794 -0.0856879
0001b0 f9 85 0e 39 6a 00 fb 3a 8c b9 dd bd 7d 7b 09 3d
       0.00013592084 0.0019149904 -0.10826406 0.033565033
0001c0 bd 4b da 3d 9f f2 59 3d f4 6e 8c 3c d0 6b 80 3d
       0.10658977 0.053209897 0.01714275 0.062705636
0001d0 d0 9b ff 3b bd fa bd 3c 97 94 08 bd ec 44 16 3c
       0.0078005567 0.02319085 -0.03334483 0.009171706
0001e0 3c 1e 7d bd 40 f8 48 bd 3f 1b 1c be 59 69 46 3c
       -0.061796412 -0.049064875 -0.15244769 0.012110078
0001f0 14 f9 ba 3d 94 b1 cf bd ec 27 d1 bc 52 4a f3 3d
       0.09129539 -0.10141292 -0.025531732 0.1187941
000200 78 3f bd 3c ed 6e a5 bc b0 7b ab bd 5b 18 ec 3d
       0.023101553 -0.020194495 -0.08373201 0.11528083
000210 19 37 14 be fd 44 56 3c 10 9c f7 3d d6 b9 aa 3d
       -0.14474143 0.0130779715 0.120903134 0.08336227
000220 c4 3c b4 bd 5a 46 43 3d 98 9b 04 bd 58 db 94 3d
       -0.088006526 0.047674514 -0.03237495 0.07268399
000230 b0 e8 1b ba bf 79 6e 3d 1e c1 df 3a f1 f2 e5 bd
       -0.0005947454 0.058221575 0.0017071103 -0.11227978
000240 7a c3 f3 3d 46 e1 a4 bd 4d c2 64 3d ec 98 7c 3c
       0.119025186 -0.0805078 0.055849362 0.015417319
000250 f4 61 c3 3c 67 0e d8 3d 59 7a 28 bd 05 ea 85 bd
       0.023850419 0.10549622 -0.041132305 -0.06538776
000260 66 ff 5f 3d 1d b9 c7 3d 4e b8 ee bc 45 ab 64 bd
       0.054686926 0.097521044 -0.029140618 -0.055827398
000270 4f 5e f4 bd 31 37 f0 3d 24 60 31 bd a3 1e f3 3c
       -0.119320504 0.11729277 -0.043304577 0.029677695
000280 64 15 f1 3a c0 3c a4 bd 8e 81 08 3a 5c 54 b6 3d
       0.0018393216 -0.080194 0.00052072934 0.08902809
000290 e2 a1 c1 bd a9 f3 3c ba 58 47 ae 39 68 a3 17 3b
       -0.09454705 -0.0007207939 0.0003324102 0.002313817
0002a0 86 dd 0c 3e 60 d6 a2 bd 2a d7 e3 3d 44 72 68 bd
       0.1375638 -0.07951045 0.11125024 -0.056749597
0002b0 9f 41 0e be 2e 9b 78 3d 9b 63 b2 3d a0 28 9d bd
       -0.1389222 0.060694866 0.087104045 -0.07673764
0002c0 91 5a 3e 3b de a4 d2 bc f1 23 54 bd f4 b8 14 be
       0.002904568 -0.02571338 -0.05179209 -0.14523679
0002d0 58 f1 e6 3d d8 ac e5 bd ca 24 8c bd 0c 0b a1 3d
       0.112765014 -0.11214608 -0.068429545 0.07863435
0002e0 90 8c d2 3d 54 41 8f 3d c8 83 04 be e5 fe ca 3d
       0.102807164 0.06994882 -0.12940896 0.099118985
0002f0 f0 82 6f bd a1 56 bb 3d a7 94 36 3d 12 87 9f bd
       -0.05847448 0.091473825 0.04457536 -0.077894345
000300 36 e6 85 3d 93 5b eb 3d 41 fd cf 3d 40 d1 36 bd
       0.0653805 0.11492076 0.10155726 -0.04463315
000310 f2 7e 9c bd 38 22 31 38 85 bb d2 bc 1d c8 06 ba
       -0.076414004 4.2231957e-05 -0.025724182 -0.00051415135
000320 2b 11 59 bd c4 1f 6f 3d fc b7 14 3d 47 da de bd
       -0.05299489 0.058379903 0.036308274 -0.10881477
000330 04 7c 05 be 73 7b 0b 3e a6 94 fe ba 13 7c a9 3d
       -0.1303559 0.13621311 -0.0019422963 0.082756184
000340 5d 77 9e bd 10 3d 3a 3d e5 8c a2 bc 89 75 e7 bc
       -0.077376105 0.04546839 -0.019842574 -0.028254287
000350 c6 c0 e5 3d ca 22 aa 3a 95 59 0c 3d 48 f5 5d 3d
       0.11218409 0.0012980339 0.03426512 0.054188997
000360 c8 da c6 bd 6f 1a 96 ba 17 0a a1 bd e7 cf 47 3a
       -0.09709698 -0.001145197 -0.078632526 0.00076222274
000370 62 62 07 3d 83 e8 b9 bd 02 4f 92 3a 52 06 6e ba
       0.03305281 -0.09077551 0.0011162462 -0.00090799213
000380 a4 60 c9 3b eb b0 d4 3d 4f bf 88 bd cb 3a b4 bd
       0.0061455537 0.10385307 -0.06677114 -0.08800276
000390 ba d1 dc bd 3a db 84 bd f1 d7 7d bc 07 7a 6e bd
       -0.1078219 -0.06487127 -0.015493379 -0.058221843
0003a0 e5 b8 17 bd 4b 86 54 be 81 0a 16 3d 8e 8e b8 bd
       -0.037041564 -0.20754354 0.03663111 -0.09011565
0003b0 85 15 93 3b 16 c7 0a be 96 24 3a 3d b7 e0 af 3d
       0.0044886493 -0.13552508 0.045445047 0.08587783
0003c0 e9 c1 02 bc df 5a fe 3c d1 24 3a bc fe 93 99 3d
       -0.007980802 0.03104919 -0.011361317 0.074989304
0003d0 e8 0e 05 bc a1 a0 d0 bd 66 1a cf bd bd 13 9a 3d
       -0.00812123 -0.101868875 -0.10112457 0.07523296
0003e0 c5 f5 d6 3c 15 b4 80 3d d9 e5 09 bd bb aa 1a 3e
       0.026240239 0.06284348 -0.033666465 0.15104191
0003f0 fb d1 e5 bd 48 b1 17 3e bf 92 47 ba fb 40 91 bd
       -0.11221691 0.14813721 -0.00076131144 -0.07092472

conv1.convs.<student___same_course___student>.lin_l.bias f4 [128]
000000 a7 00 0b bd 3d 3e d4 bd 6e 9a a3 3d a4 b2 f0 3d
       -0.03393617 -0.103634335 0.079884395 0.11752823
000010 7a d1 c5 3d 10 d3 8d 3d 3c 88 fe bd 1e 4c c5 bd
       0.09659095 0.069250226 -0.124283284 -0.09633659
000020 57 b7 eb bc 57 e7 0d be 8b 05 a8 3a 6a e6 29 3d
       -0.028773947 -0.1385778 0.0012819035 0.041479506
000030 bc 2e db bb 6e 51 01 be bd 17 d2 bd 46 08 c6 bd
       -0.006688921 -0.12628719 -0.10258434 -0.09669547
000040 92 73 f1 bd f8 7c 94 bd 98 56 5e bd ae 58 0a be
       -0.117896214 -0.072503984 -0.0542818 -0.13510391
000050 51 38 ad 3d af 86 07 bd 90 a9 78 bc df 0f 1b be
       0.08458007 -0.03308743 -0.015177146 -0.15142773
000060 a8 e5 af 3d c1 eb ee bc 5b ff b8 3d 48 0c 8a 3c
       0.08588725 -0.02916515 0.0903308 0.01685156
000070 7c 40 bb bd d8 74 99 3d 78 43 72 bd 9b 65 bd bd
       -0.09143159 0.07492989 -0.059146374 -0.09247895
000080 39 c5 b3 bd 76 31 e2 3d 4a 3e 36 be cd 59 02 3b
       -0.087778516 0.1104459 -0.17797199 0.0019889951
000090 24 24 51 bd 0c 40 81 bb c0 1e a3 3d 97 08 c9 bb
       -0.051059857 -0.0039444026 0.079648495 -0.006135057
0000a0 46 4a 0d be d8 80 61 3d 3b 60 a4 3d 89 18 05 be
       -0.13797864 0.055054516 0.08026167 -0.1299764
0000b0 1b 53 c5 bd a9 e4 c8 3d cb d6 df bc 0e 8d 79 bc
       -0.09634992 0.098092385 -0.027324101 -0.015231384
0000c0 9b a1 be bd 88 fd 00 be 39 cf d2 3d 65 a7 f0 3d
       -0.093081675 -0.12596714 0.10293431 0.11750678
0000d0 1b 5e de 3d 52 5c 85 bd a3 29 a9 3d 60 dd 4f bd
       0.10857793 -0.06511749 0.08259895 -0.05074823
0000e0 0f 1d e0 3c c1 23 2f bd 3c c9 4e bc c8 3d d7 bd
       0.027357606 -0.042758707 -0.01262122 -0.10509831
0000f0 3d cb ff bd 70 3a 28 be 34 62 16 be 23 52 30 be
       -0.124899365 -0.16428542 -0.14685899 -0.17218833
000100 c3 00 5c 3c e5 1d 1a be a9 a8 31 be e9 de cb 3d
       0.013427916 -0.15050466 -0.17349495 0.09954626
000110 2a a5 d4 3c d1 9d ad bd 2b 00 a1 3d 3e af c3 bc
       0.025957663 -0.08477367 0.0786136 -0.023887273
000120 d3 9e c0 bc ef 1f 88 3c 38 fc 39 3d c9 e3 84 bb
       -0.023513233 0.01661679 0.04540655 -0.0040554744
000130 55 a6 ab bb 26 fe 7e bd af 37 45 bd c2 fa 27 3d
       -0.005238334 -0.062254094 -0.048148807 0.041010626
000140 05 18 d8 bd 0f 04 88 3c c7 14 37 bd 00 34 10 be
       -0.10551456 0.016603498 -0.04469755 -0.14082336
000150 44 1b 8a 3d eb cf 0d be 62 9f b1 3d e2 81 2b be
       0.06743482 -0.13848846 0.08672978 -0.16748765
000160 74 60 64 bd 09 38 22 3d fe e2 c6 3d e1 06 e9 bd
       -0.055756047 0.03960422 0.09711264 -0.11378265
000170 28 5a c5 bd 0b e4 98 bd 77 ca 18 3d 0b 30 cf bd
       -0.096363366 -0.07465371 0.03730246 -0.10116585
000180 13 8f cb 3c ad b1 a5 bd 8b 40 0f be 5f 7d a8 3d
       0.024848497 -0.080905296 -0.13989465 0.08227038
000190 07 13 12 be 76 77 e6 bd 84 e9 0d be 93 92 85 bc
       -0.14265071 -0.11253254 -0.1385861 -0.016305244
0001a0 f7 46 6c bd d3 18 27 3d a8 b1 31 3d c3 a5 75 3c
       -0.057684865 0.04079516 0.043382317 0.014993134
0001b0 6e f1 7f bd 02 0a ff 3c 19 d0 b3 3c aa 9a bf bd
       -0.062486105 0.031132702 0.021949815 -0.09355672
0001c0 76 25 d9 3c 2b a8 26 be 46 ba 17 be 01 65 b7 3c
       0.02650712 -0.16275088 -0.14817151 0.02238703
0001d0 48 c0 79 bb a1 87 cb ba 39 90 5c 3d da 92 df bd
       -0.0038108993 -0.0015528091 0.05384848 -0.109166816
0001e0 09 af 5a bd 1d 65 86 bd 67 ed df bb 7d d4 be bb
       -0.053389583 -0.065622546 -0.0068337205 -0.0058236704
0001f0 fd 62 b4 3c 29 e0 50 bd 63 82 d8 3d a9 25 4b 3d
       0.022019858 -0.050995026 0.10571744 0.049596462
